…
 'device': device(type='cuda', index=0),
 'evaluate': False,
 'flip_toy_var_order': False,
 'generate': False,
 'hidden_size': 100,
 'input_dims': 2,
 'input_order': 'sequential',
 'input_size': 2,
 'log_interval': 1000,
 'lr': 0.0001,
 'model': 'realnvp',
 'n_blocks': 5,
 'n_components': 1,
 'n_epochs': 200,
 'n_hidden': 1,
 'no_batch_norm': True,
 'no_cuda': False,
 'output_dir': './results/realnvp',
 'restore_file': None,
 'results_file': './results/realnvp\\results.txt',
 'seed': 1,
 'start_epoch': 0,
 'train': True}
RealNVP(
  (net): FlowSequential(
    (0): LinearMaskedCoupling(
      (s_net): Sequential(
        (0): Linear(in_features=2, out_features=100, bias=True)
        (1): Tanh()
        (2): Linear(in_features=100, out_features=100, bias=True)
        (3): Tanh()
        (4): Linear(in_features=100, out_features=2, bias=True)
      )
      (t_net): Sequential(
        (0): Linear(in_features=2, out_features=100, bias=True)
        (1): ReLU()
        (2): Linear(in_features=100, out_features=100, bias=True)
        (3): ReLU()
        (4): Linear(in_features=100, out_features=2, bias=True)
      )
    )
    (1): LinearMaskedCoupling(
      (s_net): Sequential(
        (0): Linear(in_features=2, out_features=100, bias=True)
        (1): Tanh()
        (2): Linear(in_features=100, out_features=100, bias=True)
        (3): Tanh()
        (4): Linear(in_features=100, out_features=2, bias=True)
      )
      (t_net): Sequential(
        (0): Linear(in_features=2, out_features=100, bias=True)
        (1): ReLU()
        (2): Linear(in_features=100, out_features=100, bias=True)
        (3): ReLU()
        (4): Linear(in_features=100, out_features=2, bias=True)
      )
    )
    (2): LinearMaskedCoupling(
      (s_net): Sequential(
        (0): Linear(in_features=2, out_features=100, bias=True)
        (1): Tanh()
        (2): Linear(in_features=100, out_features=100, bias=True)
        (3): Tanh()
        (4): Linear(in_features=100, out_features=2, bias=True)
      )
      (t_net): Sequential(
        (0): Linear(in_features=2, out_features=100, bias=True)
        (1): ReLU()
        (2): Linear(in_features=100, out_features=100, bias=True)
        (3): ReLU()
        (4): Linear(in_features=100, out_features=2, bias=True)
      )
    )
    (3): LinearMaskedCoupling(
      (s_net): Sequential(
        (0): Linear(in_features=2, out_features=100, bias=True)
        (1): Tanh()
        (2): Linear(in_features=100, out_features=100, bias=True)
        (3): Tanh()
        (4): Linear(in_features=100, out_features=2, bias=True)
      )
      (t_net): Sequential(
        (0): Linear(in_features=2, out_features=100, bias=True)
        (1): ReLU()
        (2): Linear(in_features=100, out_features=100, bias=True)
        (3): ReLU()
        (4): Linear(in_features=100, out_features=2, bias=True)
      )
    )
    (4): LinearMaskedCoupling(
      (s_net): Sequential(
        (0): Linear(in_features=2, out_features=100, bias=True)
        (1): Tanh()
        (2): Linear(in_features=100, out_features=100, bias=True)
        (3): Tanh()
        (4): Linear(in_features=100, out_features=2, bias=True)
      )
      (t_net): Sequential(
        (0): Linear(in_features=2, out_features=100, bias=True)
        (1): ReLU()
        (2): Linear(in_features=100, out_features=100, bias=True)
        (3): ReLU()
        (4): Linear(in_features=100, out_features=2, bias=True)
      )
    )
  )
)
Evaluate (epoch 0) -- logp(x) = -2.008 +/- 0.002
Evaluate (epoch 1) -- logp(x) = -1.003 +/- 0.022
Evaluate (epoch 2) -- logp(x) = -0.686 +/- 0.025
Evaluate (epoch 3) -- logp(x) = -0.669 +/- 0.024
Evaluate (epoch 4) -- logp(x) = -0.446 +/- 0.025
Evaluate (epoch 5) -- logp(x) = -0.113 +/- 0.028
Evaluate (epoch 6) -- logp(x) = -0.055 +/- 0.027
…
 'device': device(type='cuda', index=0),
 'evaluate': False,
 'flip_toy_var_order': False,
 'generate': True,
 'hidden_size': 100,
 'input_dims': 2,
 'input_order': 'sequential',
 'input_size': 2,
 'log_interval': 1000,
 'lr': 0.0001,
 'model': 'realnvp',
 'n_blocks': 5,
 'n_components': 1,
 'n_epochs': 50,
 'n_hidden': 1,
 'no_batch_norm': True,
 'no_cuda': False,
 'output_dir': './results/realnvp',
 'restore_file': None,
 'results_file': './results/realnvp\\results.txt',
 'seed': 1,
 'start_epoch': 0,
 'train': False}
RealNVP(
  (net): FlowSequential(
    (0): LinearMaskedCoupling(
      (s_net): Sequential(
        (0): Linear(in_features=2, out_features=100, bias=True)
        (1): Tanh()
        (2): Linear(in_features=100, out_features=100, bias=True)
        (3): Tanh()
        (4): Linear(in_features=100, out_features=2, bias=True)
      )
      (t_net): Sequential(
        (0): Linear(in_features=2, out_features=100, bias=True)
        (1): ReLU()
        (2): Linear(in_features=100, out_features=100, bias=True)
        (3): ReLU()
        (4): Linear(in_features=100, out_features=2, bias=True)
      )
    )
    (1): LinearMaskedCoupling(
      (s_net): Sequential(
        (0): Linear(in_features=2, out_features=100, bias=True)
        (1): Tanh()
        (2): Linear(in_features=100, out_features=100, bias=True)
        (3): Tanh()
        (4): Linear(in_features=100, out_features=2, bias=True)
      )
      (t_net): Sequential(
        (0): Linear(in_features=2, out_features=100, bias=True)
        (1): ReLU()
        (2): Linear(in_features=100, out_features=100, bias=True)
        (3): ReLU()
        (4): Linear(in_features=100, out_features=2, bias=True)
      )
    )
    (2): LinearMaskedCoupling(
      (s_net): Sequential(
        (0): Linear(in_features=2, out_features=100, bias=True)
        (1): Tanh()
        (2): Linear(in_features=100, out_features=100, bias=True)
        (3): Tanh()
        (4): Linear(in_features=100, out_features=2, bias=True)
      )
      (t_net): Sequential(
        (0): Linear(in_features=2, out_features=100, bias=True)
        (1): ReLU()
        (2): Linear(in_features=100, out_features=100, bias=True)
        (3): ReLU()
        (4): Linear(in_features=100, out_features=2, bias=True)
      )
    )
    (3): LinearMaskedCoupling(
      (s_net): Sequential(
        (0): Linear(in_features=2, out_features=100, bias=True)
        (1): Tanh()
        (2): Linear(in_features=100, out_features=100, bias=True)
        (3): Tanh()
        (4): Linear(in_features=100, out_features=2, bias=True)
      )
      (t_net): Sequential(
        (0): Linear(in_features=2, out_features=100, bias=True)
        (1): ReLU()
        (2): Linear(in_features=100, out_features=100, bias=True)
        (3): ReLU()
        (4): Linear(in_features=100, out_features=2, bias=True)
      )
    )
    (4): LinearMaskedCoupling(
      (s_net): Sequential(
        (0): Linear(in_features=2, out_features=100, bias=True)
        (1): Tanh()
        (2): Linear(in_features=100, out_features=100, bias=True)
        (3): Tanh()
        (4): Linear(in_features=100, out_features=2, bias=True)
      )
      (t_net): Sequential(
        (0): Linear(in_features=2, out_features=100, bias=True)
        (1): ReLU()
        (2): Linear(in_features=100, out_features=100, bias=True)
        (3): ReLU()
        (4): Linear(in_features=100, out_features=2, bias=True)
      )
    )
  )
)
{'activation_fn': 'relu',
 'batch_size': 100,
 'cond_label_size': None,
 'conditional': False,
 'data_dir': './data/',
 'dataset': 'TORUS',
 'device': device(type='cuda', index=0),
 'evaluate': False,
 'flip_toy_var_order': False,
 'generate': False,
 'hidden_size': 100,
 'input_dims': 3,
 'input_order': 'sequential',
 'input_size': 3,
 'log_interval': 1000,
 'lr': 0.0001,
 'model': 'realnvp',
 'n_blocks': 5,
 'n_components': 1,
 'n_epochs': 200,
 'n_hidden': 1,
 'no_batch_norm': True,
 'no_cuda': False,
 'output_dir': './results/realnvp',
 'restore_file': None,
 'results_file': './results/realnvp\\results.txt',
 'seed': 1,
 'start_epoch': 0,
 'train': True}
RealNVP(
  (net): FlowSequential(
    (0): LinearMaskedCoupling(
      (s_net): Sequential(
        (0): Linear(in_features=3, out_features=100, bias=True)
        (1): Tanh()
        (2): Linear(in_features=100, out_features=100, bias=True)
        (3): Tanh()
        (4): Linear(in_features=100, out_features=3, bias=True)
      )
      (t_net): Sequential(
        (0): Linear(in_features=3, out_features=100, bias=True)
        (1): ReLU()
        (2): Linear(in_features=100, out_features=100, bias=True)
        (3): ReLU()
        (4): Linear(in_features=100, out_features=3, bias=True)
      )
    )
    (1): LinearMaskedCoupling(
      (s_net): Sequential(
        (0): Linear(in_features=3, out_features=100, bias=True)
        (1): Tanh()
        (2): Linear(in_features=100, out_features=100, bias=True)
        (3): Tanh()
        (4): Linear(in_features=100, out_features=3, bias=True)
      )
      (t_net): Sequential(
        (0): Linear(in_features=3, out_features=100, bias=True)
        (1): ReLU()
        (2): Linear(in_features=100, out_features=100, bias=True)
        (3): ReLU()
        (4): Linear(in_features=100, out_features=3, bias=True)
      )
    )
    (2): LinearMaskedCoupling(
      (s_net): Sequential(
        (0): Linear(in_features=3, out_features=100, bias=True)
        (1): Tanh()
        (2): Linear(in_features=100, out_features=100, bias=True)
        (3): Tanh()
        (4): Linear(in_features=100, out_features=3, bias=True)
      )
      (t_net): Sequential(
        (0): Linear(in_features=3, out_features=100, bias=True)
        (1): ReLU()
        (2): Linear(in_features=100, out_features=100, bias=True)
        (3): ReLU()
        (4): Linear(in_features=100, out_features=3, bias=True)
      )
    )
    (3): LinearMaskedCoupling(
      (s_net): Sequential(
        (0): Linear(in_features=3, out_features=100, bias=True)
        (1): Tanh()
        (2): Linear(in_features=100, out_features=100, bias=True)
        (3): Tanh()
        (4): Linear(in_features=100, out_features=3, bias=True)
      )
      (t_net): Sequential(
        (0): Linear(in_features=3, out_features=100, bias=True)
        (1): ReLU()
        (2): Linear(in_features=100, out_features=100, bias=True)
        (3): ReLU()
        (4): Linear(in_features=100, out_features=3, bias=True)
      )
    )
    (4): LinearMaskedCoupling(
      (s_net): Sequential(
        (0): Linear(in_features=3, out_features=100, bias=True)
        (1): Tanh()
        (2): Linear(in_features=100, out_features=100, bias=True)
        (3): Tanh()
        (4): Linear(in_features=100, out_features=3, bias=True)
      )
      (t_net): Sequential(
        (0): Linear(in_features=3, out_features=100, bias=True)
        (1): ReLU()
        (2): Linear(in_features=100, out_features=100, bias=True)
        (3): ReLU()
        (4): Linear(in_features=100, out_features=3, bias=True)
      )
    )
  )
)
Evaluate (epoch 0) -- logp(x) = -2.653 +/- 0.014
Evaluate (epoch 1) -- logp(x) = -2.629 +/- 0.014
Evaluate (epoch 2) -- logp(x) = -2.594 +/- 0.013
Evaluate (epoch 3) -- logp(x) = -2.546 +/- 0.013
Evaluate (epoch 4) -- logp(x) = -2.490 +/- 0.012
Evaluate (epoch 5) -- logp(x) = -2.423 +/- 0.014
Evaluate (epoch 6) -- logp(x) = -2.330 +/- 0.013
…
 'device': device(type='cuda', index=0),
 'evaluate': False,
 'flip_toy_var_order': False,
 'generate': True,
 'hidden_size': 100,
 'input_dims': 3,
 'input_order': 'sequential',
 'input_size': 3,
 'log_interval': 1000,
 'lr': 0.0001,
 'model': 'realnvp',
 'n_blocks': 5,
 'n_components': 1,
 'n_epochs': 50,
 'n_hidden': 1,
 'no_batch_norm': True,
 'no_cuda': False,
 'output_dir': './results/realnvp',
 'restore_file': None,
 'results_file': './results/realnvp\\results.txt',
 'seed': 1,
 'start_epoch': 0,
 'train': False}
RealNVP(
  (net): FlowSequential(
    (0): LinearMaskedCoupling(
      (s_net): Sequential(
        (0): Linear(in_features=3, out_features=100, bias=True)
        (1): Tanh()
        (2): Linear(in_features=100, out_features=100, bias=True)
        (3): Tanh()
        (4): Linear(in_features=100, out_features=3, bias=True)
      )
      (t_net): Sequential(
        (0): Linear(in_features=3, out_features=100, bias=True)
        (1): ReLU()
        (2): Linear(in_features=100, out_features=100, bias=True)
        (3): ReLU()
        (4): Linear(in_features=100, out_features=3, bias=True)
      )
    )
    (1): LinearMaskedCoupling(
      (s_net): Sequential(
        (0): Linear(in_features=3, out_features=100, bias=True)
        (1): Tanh()
        (2): Linear(in_features=100, out_features=100, bias=True)
        (3): Tanh()
        (4): Linear(in_features=100, out_features=3, bias=True)
      )
      (t_net): Sequential(
        (0): Linear(in_features=3, out_features=100, bias=True)
        (1): ReLU()
        (2): Linear(in_features=100, out_features=100, bias=True)
        (3): ReLU()
        (4): Linear(in_features=100, out_features=3, bias=True)
      )
    )
    (2): LinearMaskedCoupling(
      (s_net): Sequential(
        (0): Linear(in_features=3, out_features=100, bias=True)
        (1): Tanh()
        (2): Linear(in_features=100, out_features=100, bias=True)
        (3): Tanh()
        (4): Linear(in_features=100, out_features=3, bias=True)
      )
      (t_net): Sequential(
        (0): Linear(in_features=3, out_features=100, bias=True)
        (1): ReLU()
        (2): Linear(in_features=100, out_features=100, bias=True)
        (3): ReLU()
        (4): Linear(in_features=100, out_features=3, bias=True)
      )
    )
    (3): LinearMaskedCoupling(
      (s_net): Sequential(
        (0): Linear(in_features=3, out_features=100, bias=True)
        (1): Tanh()
        (2): Linear(in_features=100, out_features=100, bias=True)
        (3): Tanh()
        (4): Linear(in_features=100, out_features=3, bias=True)
      )
      (t_net): Sequential(
        (0): Linear(in_features=3, out_features=100, bias=True)
        (1): ReLU()
        (2): Linear(in_features=100, out_features=100, bias=True)
        (3): ReLU()
        (4): Linear(in_features=100, out_features=3, bias=True)
      )
    )
    (4): LinearMaskedCoupling(
      (s_net): Sequential(
        (0): Linear(in_features=3, out_features=100, bias=True)
        (1): Tanh()
        (2): Linear(in_features=100, out_features=100, bias=True)
        (3): Tanh()
        (4): Linear(in_features=100, out_features=3, bias=True)
      )
      (t_net): Sequential(
        (0): Linear(in_features=3, out_features=100, bias=True)
        (1): ReLU()
        (2): Linear(in_features=100, out_features=100, bias=True)
        (3): ReLU()
        (4): Linear(in_features=100, out_features=3, bias=True)
      )
    )
  )
)
{'activation_fn': 'relu',
 'batch_size': 100,
 'cond_label_size': None,
 'conditional': False,
 'data_dir': './data/',
 'dataset': 'INVOLUTE',
 'device': device(type='cuda', index=0),
 'evaluate': False,
 'flip_toy_var_order': False,
 'generate': False,
 'hidden_size': 100,
 'input_dims': 2,
 'input_order': 'sequential',
 'input_size': 2,
 'log_interval': 1000,
 'lr': 0.0001,
 'model': 'realnvp',
 'n_blocks': 5,
 'n_components': 1,
 'n_epochs': 200,
 'n_hidden': 1,
 'no_batch_norm': True,
 'no_cuda': False,
 'output_dir': './results/realnvp',
 'restore_file': None,
 'results_file': './results/realnvp\\results.txt',
 'seed': 1,
 'start_epoch': 0,
 'train': True}
RealNVP(
  (net): FlowSequential(
    (0): LinearMaskedCoupling(
      (s_net): Sequential(
        (0): Linear(in_features=2, out_features=100, bias=True)
        (1): Tanh()
        (2): Linear(in_features=100, out_features=100, bias=True)
        (3): Tanh()
        (4): Linear(in_features=100, out_features=2, bias=True)
      )
      (t_net): Sequential(
        (0): Linear(in_features=2, out_features=100, bias=True)
        (1): ReLU()
        (2): Linear(in_features=100, out_features=100, bias=True)
        (3): ReLU()
        (4): Linear(in_features=100, out_features=2, bias=True)
      )
    )
    (1): LinearMaskedCoupling(
      (s_net): Sequential(
        (0): Linear(in_features=2, out_features=100, bias=True)
        (1): Tanh()
        (2): Linear(in_features=100, out_features=100, bias=True)
        (3): Tanh()
        (4): Linear(in_features=100, out_features=2, bias=True)
      )
      (t_net): Sequential(
        (0): Linear(in_features=2, out_features=100, bias=True)
        (1): ReLU()
        (2): Linear(in_features=100, out_features=100, bias=True)
        (3): ReLU()
        (4): Linear(in_features=100, out_features=2, bias=True)
      )
    )
    (2): LinearMaskedCoupling(
      (s_net): Sequential(
        (0): Linear(in_features=2, out_features=100, bias=True)
        (1): Tanh()
        (2): Linear(in_features=100, out_features=100, bias=True)
        (3): Tanh()
        (4): Linear(in_features=100, out_features=2, bias=True)
      )
      (t_net): Sequential(
        (0): Linear(in_features=2, out_features=100, bias=True)
        (1): ReLU()
        (2): Linear(in_features=100, out_features=100, bias=True)
        (3): ReLU()
        (4): Linear(in_features=100, out_features=2, bias=True)
      )
    )
    (3): LinearMaskedCoupling(
      (s_net): Sequential(
        (0): Linear(in_features=2, out_features=100, bias=True)
        (1): Tanh()
        (2): Linear(in_features=100, out_features=100, bias=True)
        (3): Tanh()
        (4): Linear(in_features=100, out_features=2, bias=True)
      )
      (t_net): Sequential(
        (0): Linear(in_features=2, out_features=100, bias=True)
        (1): ReLU()
        (2): Linear(in_features=100, out_features=100, bias=True)
        (3): ReLU()
        (4): Linear(in_features=100, out_features=2, bias=True)
      )
    )
    (4): LinearMaskedCoupling(
      (s_net): Sequential(
        (0): Linear(in_features=2, out_features=100, bias=True)
        (1): Tanh()
        (2): Linear(in_features=100, out_features=100, bias=True)
        (3): Tanh()
        (4): Linear(in_features=100, out_features=2, bias=True)
      )
      (t_net): Sequential(
        (0): Linear(in_features=2, out_features=100, bias=True)
        (1): ReLU()
        (2): Linear(in_features=100, out_features=100, bias=True)
        (3): ReLU()
        (4): Linear(in_features=100, out_features=2, bias=True)
      )
    )
  )
)
Evaluate (epoch 0) -- logp(x) = -1.042 +/- 0.019
Evaluate (epoch 1) -- logp(x) = -1.035 +/- 0.018
Evaluate (epoch 2) -- logp(x) = -1.033 +/- 0.019
Evaluate (epoch 3) -- logp(x) = -1.026 +/- 0.017
Evaluate (epoch 4) -- logp(x) = -1.023 +/- 0.018
Evaluate (epoch 5) -- logp(x) = -1.022 +/- 0.016
Evaluate (epoch 6) -- logp(x) = -1.017 +/- 0.016
…
